[poptorch:cpp] [warning] Unused input %input_ids :
 Long(16, 384, strides=[384, 1], requires_grad=0, device=cpu),
%attention_mask.1 : Long(16, 384, strides=[384, 1], requires_grad=0,device=cpu),
%input.1 : Long(16, 384, strides=[384, 1],requires_grad=0, device=cpu), 
%labels.1: Long(16, strides=[1], requires_grad=0, device=cpu), %2792 :
 Long(1, 512, strides=[512, 1], requires_grad=0, device=cpu), %2793 :
Half(30522, 768, strides=[768, 1], requires_grad=1, device=cpu), %2794 :
Half(2, 768, strides=[768, 1], requires_grad=1, device=cpu), %2795 :
 Half(512, 768, strides=[768, 1], requires_grad=1, device=cpu), %2796 : Half(768, strides=[1], requires_grad=1, device=cpu), %2797 : Half(768, strides=[1], requires_grad=1, device=cpu), %2798 : Half(768, 768, strides=[768, 1], requires_grad=1, device=cpu), %2799 : Half(768, strides=[1], requires_grad=1, device=cpu), %2800 : Half(768, 768, strides=[768, 1], requires_grad=1, device=cpu), %2801 : Half(768, strides=[1], requires_grad=1, device=cpu), %2802 : Half(768, 768, strides=[768, 1], requires_grad=1, device=cpu), %2803 : Half(768, strides=[1], requires_grad=1, device=cpu), %2804 : Half(768, 768, strides=[768, 1], requires_grad=1, device=cpu), %2805 : Half(768, strides=[1], requires_grad=1, device=cpu), %2806 : Half(768, strides=[1], requires_grad=1, device=cpu), %2807 : Half(768, strides=[1], requires_grad=1, device=cpu), %2808 : Half(3072, 768, strides=[768, 1], requires_grad=1, device=cpu), %2809 : Half(3072, strides=[1], requires_grad=1, device=cpu), %2810 : Half(768, 3072, strides=[3072, 1], requires_grad=1, device=cpu), %2811 : Half(768, strides=[1], requires_grad=1, device=cpu), %2812 : Half(768, strides=[1], requires_grad=1, device=cpu), %2813 : Half(768, strides=[1], requires_grad=1, device=cpu), %2814 : Half(768, 768, strides=[768, 1], requires_grad=1, device=cpu), %2815 : Half(768, strides=[1], requires_grad=1, device=cpu), %2816 : Half(768, 768, strides=[768, 1], requires_grad=1, device=cpu), %2817 : Half(768, strides=[1], requires_grad=1, device=cpu), %2818 : Half(768, 768, strides=[768, 1], requires_grad=1, device=cpu), %2819 : Half(768, strides=[1], requires_grad=1, device=cpu), %2820 : Half(768, 768, strides=[768, 1], requires_grad=1, device=cpu), %2821 : Half(768, strides=[1], requires_grad=1, device=cpu), %2822 : Half(768, strides=[1], requires_grad=1, device=cpu), %2823 : Half(768, strides=[1], requires_grad=1, device=cpu), %2824 : Half(3072, 768, strides=[768, 1], requires_grad=1, device=cpu), %2825 : Half(3072, strides=[1], requires_grad=1, device=cpu), %2826 : Half(768, 3072, strides=[3072, 1], requires_grad=1, device=cpu), %2827 : Half(768, strides=[1], requires_grad=1, device=cpu), %2828 : Half(768, strides=[1], requires_grad=1, device=cpu), %2829 : Half(768, strides=[1], requires_grad=1, device=cpu), %2830 : Half(768, 768, strides=[768, 1], requires_grad=1, device=cpu), %2831 : Half(768, strides=[1], requires_grad=1, device=cpu), %2832 : Half(768, 768, strides=[768, 1], requires_grad=1, device=cpu), %2833 : Half(768, strides=[1], requires_grad=1, device=cpu), %2834 : Half(768, 768, strides=[768, 1], requires_grad=1, device=cpu), %2835 : Half(768, strides=[1], requires_grad=1, device=cpu), %2836 : Half(768, 768, strides=[768, 1], requires_grad=1, device=cpu), %2837 : Half(768, strides=[1], requires_grad=1, device=cpu), %2838 : Half(768, strides=[1], requires_grad=1, device=cpu), %2839 : Half(768, strides=[1], requires_grad=1, device=cpu), %2840 : Half(3072, 768, strides=[768, 1], requires_grad=1, device=cpu), %2841 : Half(3072, strides=[1], requires_grad=1, device=cpu), %2842 : Half(768, 3072, strides=[3072, 1], requires_grad=1, device=cpu), %2843 : Half(768, strides=[1], requires_grad=1, device=cpu), %2844 : Half(768, strides=[1], requires_grad=1, device=cpu), %2845 : Half(768, strides=[1], requires_grad=1, device=cpu), %2846 : Half(768, 768, strides=[768, 1], requires_grad=1, device=cpu), %2847 : Half(768, strides=[1], requires_grad=1, device=cpu), %2848 : Half(768, 768, strides=[768, 1], requires_grad=1, device=cpu), %2849 : Half(768, strides=[1], requires_grad=1, device=cpu), %2850 : Half(768, 768, strides=[768, 1], requires_grad=1, device=cpu), %2851 : Half(768, strides=[1], requires_grad=1, device=cpu), %2852 : Half(768, 768, strides=[768, 1], requires_grad=1, device=cpu), %2853 : Half(768, strides=[1], requires_grad=1, device=cpu), %2854 : Half(768, strides=[1], requires_grad=1, device=cpu), %2855 : Half(768, strides=[1], requires_grad=1, device=cpu), %2856 : Half(3072, 768, strides=[768, 1], requires_grad=1, device=cpu), %2857 : Half(3072, strides=[1], requires_grad=1, device=cpu), %2858 : Half(768, 3072, strides=[3072, 1], requires_grad=1, device=cpu), %2859 : Half(768, strides=[1], requires_grad=1, device=cpu), %2860 : Half(768, strides=[1], requires_grad=1, device=cpu), %2861 : Half(768, strides=[1], requires_grad=1, device=cpu), %2862 : Half(768, 768, strides=[768, 1], requires_grad=1, device=cpu), %2863 : Half(768, strides=[1], requires_grad=1, device=cpu), %2864 : Half(768, 768, strides=[768, 1], requires_grad=1, device=cpu), %2865 : Half(768, strides=[1], requires_grad=1, device=cpu), %2866 : Half(768, 768, strides=[768, 1], requires_grad=1, device=cpu), %2867 : Half(768, strides=[1], requires_grad=1, device=cpu), %2868 : Half(768, 768, strides=[768, 1], requires_grad=1, device=cpu), %2869 : Half(768, strides=[1], requires_grad=1, device=cpu), %2870 : Half(768, strides=[1], requires_grad=1, device=cpu), %2871 : Half(768, strides=[1], requires_grad=1, device=cpu), %2872 : Half(3072, 768, strides=[768, 1], requires_grad=1, device=cpu), %2873 : Half(3072, strides=[1], requires_grad=1, device=cpu), %2874 : Half(768, 3072, strides=[3072, 1], requires_grad=1, device=cpu), %2875 : Half(768, strides=[1], requires_grad=1, device=cpu), %2876 : Half(768, strides=[1], requires_grad=1, device=cpu), %2877 : Half(768, strides=[1], requires_grad=1, device=cpu), %2878 : Half(768, 768, strides=[768, 1], requires_grad=1, device=cpu), %2879 : Half(768, strides=[1], requires_grad=1, device=cpu), %2880 : Half(768, 768, strides=[768, 1], requires_grad=1, device=cpu), %2881 : Half(768, strides=[1], requires_grad=1, device=cpu), %2882 : Half(768, 768, strides=[768, 1], requires_grad=1, device=cpu), %2883 : Half(768, strides=[1], requires_grad=1, device=cpu), %2884 : Half(768, 768, strides=[768, 1], requires_grad=1, device=cpu), %2885 : Half(768, strides=[1], requires_grad=1, device=cpu), %2886 : Half(768, strides=[1], requires_grad=1, device=cpu), %2887 : Half(768, strides=[1], requires_grad=1, device=cpu), %2888 : Half(3072, 768, strides=[768, 1], requires_grad=1, device=cpu), %2889 : Half(3072, strides=[1], requires_grad=1, device=cpu), %2890 : Half(768, 3072, strides=[3072, 1], requires_grad=1, device=cpu), %2891 : Half(768, strides=[1], requires_grad=1, device=cpu), %2892 : Half(768, strides=[1], requires_grad=1, device=cpu), %2893 : Half(768, strides=[1], requires_grad=1, device=cpu), %2894 : Half(768, 768, strides=[768, 1], requires_grad=1, device=cpu), %2895 : Half(768, strides=[1], requires_grad=1, device=cpu), %2896 : Half(768, 768, strides=[768, 1], requires_grad=1, device=cpu), %2897 : Half(768, strides=[1], requires_grad=1, device=cpu), %2898 : Half(768, 768, strides=[768, 1], requires_grad=1, device=cpu), %2899 : Half(768, strides=[1], requires_grad=1, device=cpu), %2900 : Half(768, 768, strides=[768, 1], requires_grad=1, device=cpu), %2901 : Half(768, strides=[1], requires_grad=1, device=cpu), %2902 : Half(768, strides=[1], requires_grad=1, device=cpu), %2903 : Half(768, strides=[1], requires_grad=1, device=cpu), %2904 : Half(3072, 768, strides=[768, 1], requires_grad=1, device=cpu), %2905 : Half(3072, strides=[1], requires_grad=1, device=cpu), %2906 : Half(768, 3072, strides=[3072, 1], requires_grad=1, device=cpu), %2907 : Half(768, strides=[1], requires_grad=1, device=cpu), %2908 : Half(768, strides=[1], requires_grad=1, device=cpu), %2909 : Half(768, strides=[1], requires_grad=1, device=cpu), %2910 : Half(768, 768, strides=[768, 1], requires_grad=1, device=cpu), %2911 : Half(768, strides=[1], requires_grad=1, device=cpu), %2912 : Half(768, 768, strides=[768, 1], requires_grad=1, device=cpu), %2913 : Half(768, strides=[1], requires_grad=1, device=cpu), %2914 : Half(768, 768, strides=[768, 1], requires_grad=1, device=cpu), %2915 : Half(768, strides=[1], requires_grad=1, device=cpu), %2916 : Half(768, 768, strides=[768, 1], requires_grad=1, device=cpu), %2917 : Half(768, strides=[1], requires_grad=1, device=cpu), %2918 : Half(768, strides=[1], requires_grad=1, device=cpu), %2919 : Half(768, strides=[1], requires_grad=1, device=cpu), %2920 : Half(3072, 768, strides=[768, 1], requires_grad=1, device=cpu), %2921 : Half(3072, strides=[1], requires_grad=1, device=cpu), %2922 : Half(768, 3072, strides=[3072, 1], requires_grad=1, device=cpu), %2923 : Half(768, strides=[1], requires_grad=1, device=cpu), %2924 : Half(768, strides=[1], requires_grad=1, device=cpu), %2925 : Half(768, strides=[1], requires_grad=1, device=cpu), %2926 : Half(768, 768, strides=[768, 1], requires_grad=1, device=cpu), %2927 : Half(768, strides=[1], requires_grad=1, device=cpu), %2928 : Half(768, 768, strides=[768, 1], requires_grad=1, device=cpu), %2929 : Half(768, strides=[1], requires_grad=1, device=cpu), %2930 : Half(768, 768, strides=[768, 1], requires_grad=1, device=cpu), %2931 : Half(768, strides=[1], requires_grad=1, device=cpu), %2932 : Half(768, 768, strides=[768, 1], requires_grad=1, device=cpu), %2933 : Half(768, strides=[1], requires_grad=1, device=cpu), %2934 : Half(768, strides=[1], requires_grad=1, device=cpu), %2935 : Half(768, strides=[1], requires_grad=1, device=cpu), %2936 : Half(3072, 768, strides=[768, 1], requires_grad=1, device=cpu), %2937 : Half(3072, strides=[1], requires_grad=1, device=cpu), %2938 : Half(768, 3072, strides=[3072, 1], requires_grad=1, device=cpu), %2939 : Half(768, strides=[1], requires_grad=1, device=cpu), %2940 : Half(768, strides=[1], requires_grad=1, device=cpu), %2941 : Half(768, strides=[1], requires_grad=1, device=cpu), %2942 : Half(768, 768, strides=[768, 1], requires_grad=1, device=cpu), %2943 : Half(768, strides=[1], requires_grad=1, device=cpu), %2944 : Half(768, 768, strides=[768, 1], requires_grad=1, device=cpu), %2945 : Half(768, strides=[1], requires_grad=1, device=cpu), %2946 : Half(768, 768, strides=[768, 1], requires_grad=1, device=cpu), %2947 : Half(768, strides=[1], requires_grad=1, device=cpu), %2948 : Half(768, 768, strides=[768, 1], requires_grad=1, device=cpu), %2949 : Half(768, strides=[1], requires_grad=1, device=cpu), %2950 : Half(768, strides=[1], requires_grad=1, device=cpu), %2951 : Half(768, strides=[1], requires_grad=1, device=cpu), %2952 : Half(3072, 768, strides=[768, 1], requires_grad=1, device=cpu), %2953 : Half(3072, strides=[1], requires_grad=1, device=cpu), %2954 : Half(768, 3072, strides=[3072, 1], requires_grad=1, device=cpu), %2955 : Half(768, strides=[1], requires_grad=1, device=cpu), %2956 : Half(768, strides=[1], requires_grad=1, device=cpu), %2957 : Half(768, strides=[1], requires_grad=1, device=cpu), %2958 : Half(768, 768, strides=[768, 1], requires_grad=1, device=cpu), %2959 : Half(768, strides=[1], requires_grad=1, device=cpu), %2960 : Half(768, 768, strides=[768, 1], requires_grad=1, device=cpu), %2961 : Half(768, strides=[1], requires_grad=1, device=cpu), %2962 : Half(768, 768, strides=[768, 1], requires_grad=1, device=cpu), %2963 : Half(768, strides=[1], requires_grad=1, device=cpu), %2964 : Half(768, 768, strides=[768, 1], requires_grad=1, device=cpu), %2965 : Half(768, strides=[1], requires_grad=1, device=cpu), %2966 : Half(768, strides=[1], requires_grad=1, device=cpu), %2967 : Half(768, strides=[1], requires_grad=1, device=cpu), %2968 : Half(3072, 768, strides=[768, 1], requires_grad=1, device=cpu), %2969 : Half(3072, strides=[1], requires_grad=1, device=cpu), %2970 : Half(768, 3072, strides=[3072, 1], requires_grad=1, device=cpu), %2971 : Half(768, strides=[1], requires_grad=1, device=cpu), %2972 : Half(768, strides=[1], requires_grad=1, device=cpu), %2973 : Half(768, strides=[1], requires_grad=1, device=cpu), %2974 : Half(768, 768, strides=[768, 1], requires_grad=1, device=cpu), %2975 : Half(768, strides=[1], requires_grad=1, device=cpu), %2976 : Half(768, 768, strides=[768, 1], requires_grad=1, device=cpu), %2977 : Half(768, strides=[1], requires_grad=1, device=cpu), %2978 : Half(768, 768, strides=[768, 1], requires_grad=1, device=cpu), %2979 : Half(768, strides=[1], requires_grad=1, device=cpu), %2980 : Half(768, 768, strides=[768, 1], requires_grad=1, device=cpu), %2981 : Half(768, strides=[1], requires_grad=1, device=cpu), %2982 : Half(768, strides=[1], requires_grad=1, device=cpu), %2983 : Half(768, strides=[1], requires_grad=1, device=cpu), %2984 : Half(3072, 768, strides=[768, 1], requires_grad=1, device=cpu), %2985 : Half(3072, strides=[1], requires_grad=1, device=cpu), %2986 : Half(768, 3072, strides=[3072, 1], requires_grad=1, device=cpu), %2987 : Half(768, strides=[1], requires_grad=1, device=cpu), %2988 : Half(768, strides=[1], requires_grad=1, device=cpu), %2989 : Half(768, strides=[1], requires_grad=1, device=cpu), %2990 : Half(768, 768, strides=[768, 1], requires_grad=1, device=cpu), %2991 : Half(768, strides=[1], requires_grad=1, device=cpu), %2992 : Half(3, 768, strides=[768, 1], requires_grad=1, device=cpu), %2993 : Half(3, strides=[1], requires_grad=1, device=cpu) = prim::Param()